2024-11-06 00:08:58,667 - root - INFO - test-time adaptation: TENT
2024-11-06 00:08:58,677 - root - INFO - model for adaptation: Unet2D(
  (convd1): ConvD(
    (conv1): Conv2d(1, 16, kernel_size=(3, 3), stride=(1, 1), padding=(1, 1))
    (bn1): DomainSpecificBatchNorm2d(
      (bns): ModuleList(
        (0): BatchNorm2d(16, eps=1e-05, momentum=0.1, affine=True, track_running_stats=False)
        (1): BatchNorm2d(16, eps=1e-05, momentum=0.1, affine=True, track_running_stats=False)
      )
    )
    (conv2): Conv2d(16, 16, kernel_size=(3, 3), stride=(1, 1), padding=(1, 1))
    (bn2): DomainSpecificBatchNorm2d(
      (bns): ModuleList(
        (0): BatchNorm2d(16, eps=1e-05, momentum=0.1, affine=True, track_running_stats=False)
        (1): BatchNorm2d(16, eps=1e-05, momentum=0.1, affine=True, track_running_stats=False)
      )
    )
    (conv3): Conv2d(16, 16, kernel_size=(3, 3), stride=(1, 1), padding=(1, 1))
    (bn3): DomainSpecificBatchNorm2d(
      (bns): ModuleList(
        (0): BatchNorm2d(16, eps=1e-05, momentum=0.1, affine=True, track_running_stats=False)
        (1): BatchNorm2d(16, eps=1e-05, momentum=0.1, affine=True, track_running_stats=False)
      )
    )
  )
  (convd2): ConvD(
    (conv1): Conv2d(16, 32, kernel_size=(3, 3), stride=(1, 1), padding=(1, 1))
    (bn1): DomainSpecificBatchNorm2d(
      (bns): ModuleList(
        (0): BatchNorm2d(32, eps=1e-05, momentum=0.1, affine=True, track_running_stats=False)
        (1): BatchNorm2d(32, eps=1e-05, momentum=0.1, affine=True, track_running_stats=False)
      )
    )
    (conv2): Conv2d(32, 32, kernel_size=(3, 3), stride=(1, 1), padding=(1, 1))
    (bn2): DomainSpecificBatchNorm2d(
      (bns): ModuleList(
        (0): BatchNorm2d(32, eps=1e-05, momentum=0.1, affine=True, track_running_stats=False)
        (1): BatchNorm2d(32, eps=1e-05, momentum=0.1, affine=True, track_running_stats=False)
      )
    )
    (conv3): Conv2d(32, 32, kernel_size=(3, 3), stride=(1, 1), padding=(1, 1))
    (bn3): DomainSpecificBatchNorm2d(
      (bns): ModuleList(
        (0): BatchNorm2d(32, eps=1e-05, momentum=0.1, affine=True, track_running_stats=False)
        (1): BatchNorm2d(32, eps=1e-05, momentum=0.1, affine=True, track_running_stats=False)
      )
    )
  )
  (convd3): ConvD(
    (conv1): Conv2d(32, 64, kernel_size=(3, 3), stride=(1, 1), padding=(1, 1))
    (bn1): DomainSpecificBatchNorm2d(
      (bns): ModuleList(
        (0): BatchNorm2d(64, eps=1e-05, momentum=0.1, affine=True, track_running_stats=False)
        (1): BatchNorm2d(64, eps=1e-05, momentum=0.1, affine=True, track_running_stats=False)
      )
    )
    (conv2): Conv2d(64, 64, kernel_size=(3, 3), stride=(1, 1), padding=(1, 1))
    (bn2): DomainSpecificBatchNorm2d(
      (bns): ModuleList(
        (0): BatchNorm2d(64, eps=1e-05, momentum=0.1, affine=True, track_running_stats=False)
        (1): BatchNorm2d(64, eps=1e-05, momentum=0.1, affine=True, track_running_stats=False)
      )
    )
    (conv3): Conv2d(64, 64, kernel_size=(3, 3), stride=(1, 1), padding=(1, 1))
    (bn3): DomainSpecificBatchNorm2d(
      (bns): ModuleList(
        (0): BatchNorm2d(64, eps=1e-05, momentum=0.1, affine=True, track_running_stats=False)
        (1): BatchNorm2d(64, eps=1e-05, momentum=0.1, affine=True, track_running_stats=False)
      )
    )
  )
  (convd4): ConvD(
    (conv1): Conv2d(64, 128, kernel_size=(3, 3), stride=(1, 1), padding=(1, 1))
    (bn1): DomainSpecificBatchNorm2d(
      (bns): ModuleList(
        (0): BatchNorm2d(128, eps=1e-05, momentum=0.1, affine=True, track_running_stats=False)
        (1): BatchNorm2d(128, eps=1e-05, momentum=0.1, affine=True, track_running_stats=False)
      )
    )
    (conv2): Conv2d(128, 128, kernel_size=(3, 3), stride=(1, 1), padding=(1, 1))
    (bn2): DomainSpecificBatchNorm2d(
      (bns): ModuleList(
        (0): BatchNorm2d(128, eps=1e-05, momentum=0.1, affine=True, track_running_stats=False)
        (1): BatchNorm2d(128, eps=1e-05, momentum=0.1, affine=True, track_running_stats=False)
      )
    )
    (conv3): Conv2d(128, 128, kernel_size=(3, 3), stride=(1, 1), padding=(1, 1))
    (bn3): DomainSpecificBatchNorm2d(
      (bns): ModuleList(
        (0): BatchNorm2d(128, eps=1e-05, momentum=0.1, affine=True, track_running_stats=False)
        (1): BatchNorm2d(128, eps=1e-05, momentum=0.1, affine=True, track_running_stats=False)
      )
    )
  )
  (convd5): ConvD(
    (conv1): Conv2d(128, 256, kernel_size=(3, 3), stride=(1, 1), padding=(1, 1))
    (bn1): DomainSpecificBatchNorm2d(
      (bns): ModuleList(
        (0): BatchNorm2d(256, eps=1e-05, momentum=0.1, affine=True, track_running_stats=False)
        (1): BatchNorm2d(256, eps=1e-05, momentum=0.1, affine=True, track_running_stats=False)
      )
    )
    (conv2): Conv2d(256, 256, kernel_size=(3, 3), stride=(1, 1), padding=(1, 1))
    (bn2): DomainSpecificBatchNorm2d(
      (bns): ModuleList(
        (0): BatchNorm2d(256, eps=1e-05, momentum=0.1, affine=True, track_running_stats=False)
        (1): BatchNorm2d(256, eps=1e-05, momentum=0.1, affine=True, track_running_stats=False)
      )
    )
    (conv3): Conv2d(256, 256, kernel_size=(3, 3), stride=(1, 1), padding=(1, 1))
    (bn3): DomainSpecificBatchNorm2d(
      (bns): ModuleList(
        (0): BatchNorm2d(256, eps=1e-05, momentum=0.1, affine=True, track_running_stats=False)
        (1): BatchNorm2d(256, eps=1e-05, momentum=0.1, affine=True, track_running_stats=False)
      )
    )
  )
  (convu4): ConvU(
    (pool): MyUpsample2()
    (conv2): Conv2d(256, 128, kernel_size=(1, 1), stride=(1, 1))
    (bn2): DomainSpecificBatchNorm2d(
      (bns): ModuleList(
        (0): BatchNorm2d(128, eps=1e-05, momentum=0.1, affine=True, track_running_stats=False)
        (1): BatchNorm2d(128, eps=1e-05, momentum=0.1, affine=True, track_running_stats=False)
      )
    )
    (conv3): Conv2d(256, 256, kernel_size=(3, 3), stride=(1, 1), padding=(1, 1))
    (bn3): DomainSpecificBatchNorm2d(
      (bns): ModuleList(
        (0): BatchNorm2d(256, eps=1e-05, momentum=0.1, affine=True, track_running_stats=False)
        (1): BatchNorm2d(256, eps=1e-05, momentum=0.1, affine=True, track_running_stats=False)
      )
    )
    (relu): ReLU(inplace=True)
  )
  (convu3): ConvU(
    (conv1): Conv2d(256, 128, kernel_size=(3, 3), stride=(1, 1), padding=(1, 1))
    (bn1): DomainSpecificBatchNorm2d(
      (bns): ModuleList(
        (0): BatchNorm2d(128, eps=1e-05, momentum=0.1, affine=True, track_running_stats=False)
        (1): BatchNorm2d(128, eps=1e-05, momentum=0.1, affine=True, track_running_stats=False)
      )
    )
    (pool): MyUpsample2()
    (conv2): Conv2d(128, 64, kernel_size=(1, 1), stride=(1, 1))
    (bn2): DomainSpecificBatchNorm2d(
      (bns): ModuleList(
        (0): BatchNorm2d(64, eps=1e-05, momentum=0.1, affine=True, track_running_stats=False)
        (1): BatchNorm2d(64, eps=1e-05, momentum=0.1, affine=True, track_running_stats=False)
      )
    )
    (conv3): Conv2d(128, 128, kernel_size=(3, 3), stride=(1, 1), padding=(1, 1))
    (bn3): DomainSpecificBatchNorm2d(
      (bns): ModuleList(
        (0): BatchNorm2d(128, eps=1e-05, momentum=0.1, affine=True, track_running_stats=False)
        (1): BatchNorm2d(128, eps=1e-05, momentum=0.1, affine=True, track_running_stats=False)
      )
    )
    (relu): ReLU(inplace=True)
  )
  (convu2): ConvU(
    (conv1): Conv2d(128, 64, kernel_size=(3, 3), stride=(1, 1), padding=(1, 1))
    (bn1): DomainSpecificBatchNorm2d(
      (bns): ModuleList(
        (0): BatchNorm2d(64, eps=1e-05, momentum=0.1, affine=True, track_running_stats=False)
        (1): BatchNorm2d(64, eps=1e-05, momentum=0.1, affine=True, track_running_stats=False)
      )
    )
    (pool): MyUpsample2()
    (conv2): Conv2d(64, 32, kernel_size=(1, 1), stride=(1, 1))
    (bn2): DomainSpecificBatchNorm2d(
      (bns): ModuleList(
        (0): BatchNorm2d(32, eps=1e-05, momentum=0.1, affine=True, track_running_stats=False)
        (1): BatchNorm2d(32, eps=1e-05, momentum=0.1, affine=True, track_running_stats=False)
      )
    )
    (conv3): Conv2d(64, 64, kernel_size=(3, 3), stride=(1, 1), padding=(1, 1))
    (bn3): DomainSpecificBatchNorm2d(
      (bns): ModuleList(
        (0): BatchNorm2d(64, eps=1e-05, momentum=0.1, affine=True, track_running_stats=False)
        (1): BatchNorm2d(64, eps=1e-05, momentum=0.1, affine=True, track_running_stats=False)
      )
    )
    (relu): ReLU(inplace=True)
  )
  (convu1): ConvU(
    (conv1): Conv2d(64, 32, kernel_size=(3, 3), stride=(1, 1), padding=(1, 1))
    (bn1): DomainSpecificBatchNorm2d(
      (bns): ModuleList(
        (0): BatchNorm2d(32, eps=1e-05, momentum=0.1, affine=True, track_running_stats=False)
        (1): BatchNorm2d(32, eps=1e-05, momentum=0.1, affine=True, track_running_stats=False)
      )
    )
    (pool): MyUpsample2()
    (conv2): Conv2d(32, 16, kernel_size=(1, 1), stride=(1, 1))
    (bn2): DomainSpecificBatchNorm2d(
      (bns): ModuleList(
        (0): BatchNorm2d(16, eps=1e-05, momentum=0.1, affine=True, track_running_stats=False)
        (1): BatchNorm2d(16, eps=1e-05, momentum=0.1, affine=True, track_running_stats=False)
      )
    )
    (conv3): Conv2d(32, 32, kernel_size=(3, 3), stride=(1, 1), padding=(1, 1))
    (bn3): DomainSpecificBatchNorm2d(
      (bns): ModuleList(
        (0): BatchNorm2d(32, eps=1e-05, momentum=0.1, affine=True, track_running_stats=False)
        (1): BatchNorm2d(32, eps=1e-05, momentum=0.1, affine=True, track_running_stats=False)
      )
    )
    (relu): ReLU(inplace=True)
  )
  (seg1): Conv2d(32, 2, kernel_size=(1, 1), stride=(1, 1))
)
2024-11-06 00:08:58,678 - root - INFO - params for adaptation: ['convd1.bn1.bns.0.weight', 'convd1.bn1.bns.0.bias', 'convd1.bn1.bns.1.weight', 'convd1.bn1.bns.1.bias', 'convd1.bn2.bns.0.weight', 'convd1.bn2.bns.0.bias', 'convd1.bn2.bns.1.weight', 'convd1.bn2.bns.1.bias', 'convd1.bn3.bns.0.weight', 'convd1.bn3.bns.0.bias', 'convd1.bn3.bns.1.weight', 'conv
…
